{\rtf1\ansi\ansicpg1252\deff0\nouicompat\deflang1033{\fonttbl{\f0\fnil\fcharset0 Calibri;}{\f1\fnil\fcharset1 Segoe UI Symbol;}}
{\*\generator Riched20 10.0.19041}\viewkind4\uc1 
\pard\sa200\sl276\slmult1\f0\fs22\lang9 lr:  \{0.0001\} num epochs:  \{100\} batch size:  \{10\}\par
Model: \{unet(\par
  (ups): ModuleList(\par
    (0): ConvTranspose2d(1024, 512, kernel_size=(2, 2), stride=(2, 2))\par
    (1): DoubleConv(\par
      (conv): Sequential(\par
        (0): Conv2d(1024, 512, kernel_size=(3, 3), stride=(1, 1), padding=(1, 1), bias=False)\par
        (1): BatchNorm2d(512, eps=1e-05, momentum=0.1, affine=True, track_running_stats=True)\par
        (2): ReLU(inplace=True)\par
        (3): Conv2d(512, 512, kernel_size=(3, 3), stride=(1, 1), padding=(1, 1), bias=False)\par
        (4): BatchNorm2d(512, eps=1e-05, momentum=0.1, affine=True, track_running_stats=True)\par
        (5): ReLU(inplace=True)\par
      )\par
    )\par
    (2): ConvTranspose2d(512, 256, kernel_size=(2, 2), stride=(2, 2))\par
    (3): DoubleConv(\par
      (conv): Sequential(\par
        (0): Conv2d(512, 256, kernel_size=(3, 3), stride=(1, 1), padding=(1, 1), bias=False)\par
        (1): BatchNorm2d(256, eps=1e-05, momentum=0.1, affine=True, track_running_stats=True)\par
        (2): ReLU(inplace=True)\par
        (3): Conv2d(256, 256, kernel_size=(3, 3), stride=(1, 1), padding=(1, 1), bias=False)\par
        (4): BatchNorm2d(256, eps=1e-05, momentum=0.1, affine=True, track_running_stats=True)\par
        (5): ReLU(inplace=True)\par
      )\par
    )\par
    (4): ConvTranspose2d(256, 128, kernel_size=(2, 2), stride=(2, 2))\par
    (5): DoubleConv(\par
      (conv): Sequential(\par
        (0): Conv2d(256, 128, kernel_size=(3, 3), stride=(1, 1), padding=(1, 1), bias=False)\par
        (1): BatchNorm2d(128, eps=1e-05, momentum=0.1, affine=True, track_running_stats=True)\par
        (2): ReLU(inplace=True)\par
        (3): Conv2d(128, 128, kernel_size=(3, 3), stride=(1, 1), padding=(1, 1), bias=False)\par
        (4): BatchNorm2d(128, eps=1e-05, momentum=0.1, affine=True, track_running_stats=True)\par
        (5): ReLU(inplace=True)\par
      )\par
    )\par
    (6): ConvTranspose2d(128, 64, kernel_size=(2, 2), stride=(2, 2))\par
    (7): DoubleConv(\par
      (conv): Sequential(\par
        (0): Conv2d(128, 64, kernel_size=(3, 3), stride=(1, 1), padding=(1, 1), bias=False)\par
        (1): BatchNorm2d(64, eps=1e-05, momentum=0.1, affine=True, track_running_stats=True)\par
        (2): ReLU(inplace=True)\par
        (3): Conv2d(64, 64, kernel_size=(3, 3), stride=(1, 1), padding=(1, 1), bias=False)\par
        (4): BatchNorm2d(64, eps=1e-05, momentum=0.1, affine=True, track_running_stats=True)\par
        (5): ReLU(inplace=True)\par
      )\par
    )\par
  )\par
  (downs): ModuleList(\par
    (0): DoubleConv(\par
      (conv): Sequential(\par
        (0): Conv2d(1, 64, kernel_size=(3, 3), stride=(1, 1), padding=(1, 1), bias=False)\par
        (1): BatchNorm2d(64, eps=1e-05, momentum=0.1, affine=True, track_running_stats=True)\par
        (2): ReLU(inplace=True)\par
        (3): Conv2d(64, 64, kernel_size=(3, 3), stride=(1, 1), padding=(1, 1), bias=False)\par
        (4): BatchNorm2d(64, eps=1e-05, momentum=0.1, affine=True, track_running_stats=True)\par
        (5): ReLU(inplace=True)\par
      )\par
    )\par
    (1): DoubleConv(\par
      (conv): Sequential(\par
        (0): Conv2d(64, 128, kernel_size=(3, 3), stride=(1, 1), padding=(1, 1), bias=False)\par
        (1): BatchNorm2d(128, eps=1e-05, momentum=0.1, affine=True, track_running_stats=True)\par
        (2): ReLU(inplace=True)\par
        (3): Conv2d(128, 128, kernel_size=(3, 3), stride=(1, 1), padding=(1, 1), bias=False)\par
        (4): BatchNorm2d(128, eps=1e-05, momentum=0.1, affine=True, track_running_stats=True)\par
        (5): ReLU(inplace=True)\par
      )\par
    )\par
    (2): DoubleConv(\par
      (conv): Sequential(\par
        (0): Conv2d(128, 256, kernel_size=(3, 3), stride=(1, 1), padding=(1, 1), bias=False)\par
        (1): BatchNorm2d(256, eps=1e-05, momentum=0.1, affine=True, track_running_stats=True)\par
        (2): ReLU(inplace=True)\par
        (3): Conv2d(256, 256, kernel_size=(3, 3), stride=(1, 1), padding=(1, 1), bias=False)\par
        (4): BatchNorm2d(256, eps=1e-05, momentum=0.1, affine=True, track_running_stats=True)\par
        (5): ReLU(inplace=True)\par
      )\par
    )\par
    (3): DoubleConv(\par
      (conv): Sequential(\par
        (0): Conv2d(256, 512, kernel_size=(3, 3), stride=(1, 1), padding=(1, 1), bias=False)\par
        (1): BatchNorm2d(512, eps=1e-05, momentum=0.1, affine=True, track_running_stats=True)\par
        (2): ReLU(inplace=True)\par
        (3): Conv2d(512, 512, kernel_size=(3, 3), stride=(1, 1), padding=(1, 1), bias=False)\par
        (4): BatchNorm2d(512, eps=1e-05, momentum=0.1, affine=True, track_running_stats=True)\par
        (5): ReLU(inplace=True)\par
      )\par
    )\par
  )\par
  (pool): MaxPool2d(kernel_size=2, stride=2, padding=0, dilation=1, ceil_mode=False)\par
  (bottleneck): DoubleConv(\par
    (conv): Sequential(\par
      (0): Conv2d(512, 1024, kernel_size=(3, 3), stride=(1, 1), padding=(1, 1), bias=False)\par
      (1): BatchNorm2d(1024, eps=1e-05, momentum=0.1, affine=True, track_running_stats=True)\par
      (2): ReLU(inplace=True)\par
      (3): Conv2d(1024, 1024, kernel_size=(3, 3), stride=(1, 1), padding=(1, 1), bias=False)\par
      (4): BatchNorm2d(1024, eps=1e-05, momentum=0.1, affine=True, track_running_stats=True)\par
      (5): ReLU(inplace=True)\par
    )\par
  )\par
  (final_conv): Conv2d(64, 1, kernel_size=(1, 1), stride=(1, 1))\par
)\}\par
Train_Epoch:1/100|iter:126| bce_loss: 0.3139 | dice_loss: 0.9923 | total_loss: 0.6531: 100%|\f1\u9608?\u9608?\u9608?\u9608?\u9608?\u9608?\u9608?\u9608?\u9608?\u9608?\f0 | 126/126 [01:37<00:00,  1.29it/s]\par
Train_Epoch:1/100|train_bce_loss: 0.4045|train_dice_loss: 0.9919|train_total_loss: 0.6982|train_f1: 0.0000|train_asd: 44.4510|train_hd95: 202.6119\par
…
